

*****************************************************************


Preparing the dataset for the Image experiment...
Fashion MNIST has been set as the active dataset.
Creating selected models...

Model: "Image_MLP"
_________________________________________________________________
 Layer (type)                Output Shape              Param #   
=================================================================
 flatten_4 (Flatten)         (None, 784)               0         
                                                                 
 dense_18 (Dense)            (None, 224)               175840    
                                                                 
 dropout_17 (Dropout)        (None, 224)               0         
                                                                 
 dense_19 (Dense)            (None, 224)               50400     
                                                                 
 dropout_18 (Dropout)        (None, 224)               0         
                                                                 
 dense_20 (Dense)            (None, 112)               25200     
                                                                 
 dropout_19 (Dropout)        (None, 112)               0         
                                                                 
 dense_21 (Dense)            (None, 10)                1130      
                                                                 
 activation_8 (Activation)   (None, 10)                0         
                                                                 
=================================================================
Total params: 252,570
Trainable params: 252,570
Non-trainable params: 0
_________________________________________________________________
 
Model: "Image_CNN"
_________________________________________________________________
 Layer (type)                Output Shape              Param #   
=================================================================
 reshape_2 (Reshape)         (None, 28, 28, 1)         0         
                                                                 
 conv2d_6 (Conv2D)           (None, 26, 26, 32)        320       
                                                                 
 max_pooling2d_4 (MaxPooling  (None, 13, 13, 32)       0         
 2D)                                                             
                                                                 
 dropout_20 (Dropout)        (None, 13, 13, 32)        0         
                                                                 
 conv2d_7 (Conv2D)           (None, 11, 11, 64)        18496     
                                                                 
 max_pooling2d_5 (MaxPooling  (None, 5, 5, 64)         0         
 2D)                                                             
                                                                 
 dropout_21 (Dropout)        (None, 5, 5, 64)          0         
                                                                 
 conv2d_8 (Conv2D)           (None, 3, 3, 128)         73856     
                                                                 
 dropout_22 (Dropout)        (None, 3, 3, 128)         0         
                                                                 
 flatten_5 (Flatten)         (None, 1152)              0         
                                                                 
 dense_22 (Dense)            (None, 128)               147584    
                                                                 
 dropout_23 (Dropout)        (None, 128)               0         
                                                                 
 dense_23 (Dense)            (None, 10)                1290      
                                                                 
 activation_9 (Activation)   (None, 10)                0         
                                                                 
=================================================================
Total params: 241,546
Trainable params: 241,546
Non-trainable params: 0
_________________________________________________________________
 
Model: "Image_RNN"
_________________________________________________________________
 Layer (type)                Output Shape              Param #   
=================================================================
 lstm_5 (LSTM)               (None, 28, 180)           150480    
                                                                 
 lstm_6 (LSTM)               (None, 90)                97560     
                                                                 
 dropout_24 (Dropout)        (None, 90)                0         
                                                                 
 dense_24 (Dense)            (None, 90)                8190      
                                                                 
 dropout_25 (Dropout)        (None, 90)                0         
                                                                 
 dense_25 (Dense)            (None, 10)                910       
                                                                 
 activation_10 (Activation)  (None, 10)                0         
                                                                 
=================================================================
Total params: 257,140
Trainable params: 257,140
Non-trainable params: 0
_________________________________________________________________
 
Model: "Image_CNNx"
_________________________________________________________________
 Layer (type)                Output Shape              Param #   
=================================================================
 reshape_3 (Reshape)         (None, 28, 28, 1)         0         
                                                                 
 conv2d_9 (Conv2D)           (None, 26, 26, 32)        320       
                                                                 
 max_pooling2d_6 (MaxPooling  (None, 13, 13, 32)       0         
 2D)                                                             
                                                                 
 conv2d_10 (Conv2D)          (None, 11, 11, 64)        18496     
                                                                 
 max_pooling2d_7 (MaxPooling  (None, 5, 5, 64)         0         
 2D)                                                             
                                                                 
 conv2d_11 (Conv2D)          (None, 3, 3, 128)         73856     
                                                                 
 flatten_6 (Flatten)         (None, 1152)              0         
                                                                 
 dense_26 (Dense)            (None, 128)               147584    
                                                                 
 dense_27 (Dense)            (None, 10)                1290      
                                                                 
 activation_11 (Activation)  (None, 10)                0         
                                                                 
=================================================================
Total params: 241,546
Trainable params: 241,546
Non-trainable params: 0
_________________________________________________________________
 
All selected models have been successfully created.


Starting training of Image_MLP...

Beginning epoch 1 of training Image_MLP...
…
