

*****************************************************************


Preparing the dataset for the Sequential experiment...
IMDB movie review sentiment classification has been set as the active dataset.
Creating selected models...

Model: "Sequential_MLP"
_________________________________________________________________
 Layer (type)                Output Shape              Param #   
=================================================================
 flatten (Flatten)           (None, 10000)             0         
                                                                 
 dropout (Dropout)           (None, 10000)             0         
                                                                 
 dense (Dense)               (None, 36)                360036    
                                                                 
 dropout_1 (Dropout)         (None, 36)                0         
                                                                 
 dense_1 (Dense)             (None, 36)                1332      
                                                                 
 dropout_2 (Dropout)         (None, 36)                0         
                                                                 
 dense_2 (Dense)             (None, 1)                 37        
                                                                 
 activation (Activation)     (None, 1)                 0         
                                                                 
=================================================================
Total params: 361,405
Trainable params: 361,405
Non-trainable params: 0
_________________________________________________________________
 
Model: "Sequential_CNN"
_________________________________________________________________
 Layer (type)                Output Shape              Param #   
=================================================================
 embedding (Embedding)       (None, 500, 32)           320000    
                                                                 
 dropout_3 (Dropout)         (None, 500, 32)           0         
                                                                 
 conv1d (Conv1D)             (None, 500, 64)           6208      
                                                                 
 global_max_pooling1d (Globa  (None, 64)               0         
 lMaxPooling1D)                                                  
                                                                 
 dense_3 (Dense)             (None, 256)               16640     
                                                                 
 dropout_4 (Dropout)         (None, 256)               0         
                                                                 
 dense_4 (Dense)             (None, 1)                 257       
                                                                 
 activation_1 (Activation)   (None, 1)                 0         
                                                                 
=================================================================
Total params: 343,105
Trainable params: 343,105
Non-trainable params: 0
_________________________________________________________________
 
Model: "Sequential_RNN"
_________________________________________________________________
 Layer (type)                Output Shape              Param #   
=================================================================
 embedding_1 (Embedding)     (None, 500, 32)           320000    
                                                                 
 lstm (LSTM)                 (None, 100)               53200     
                                                                 
 dropout_5 (Dropout)         (None, 100)               0         
                                                                 
 dense_5 (Dense)             (None, 1)                 101       
                                                                 
 activation_2 (Activation)   (None, 1)                 0         
                                                                 
=================================================================
Total params: 373,301
Trainable params: 373,301
Non-trainable params: 0
_________________________________________________________________
 
Model: "Sequential_RNNx"
_________________________________________________________________
 Layer (type)                Output Shape              Param #   
=================================================================
 embedding_2 (Embedding)     (None, 500, 32)           320000    
                                                                 
 lstm_1 (LSTM)               (None, 500, 80)           36160     
                                                                 
 lstm_2 (LSTM)               (None, 40)                19360     
                                                                 
 dropout_6 (Dropout)         (None, 40)                0         
                                                                 
 dense_6 (Dense)             (None, 40)                1640      
                                                                 
 dropout_7 (Dropout)         (None, 40)                0         
                                                                 
 dense_7 (Dense)             (None, 1)                 41        
                                                                 
 activation_3 (Activation)   (None, 1)                 0         
                                                                 
=================================================================
Total params: 377,201
Trainable params: 377,201
Non-trainable params: 0
_________________________________________________________________
 
All selected models have been successfully created.


Starting training of Sequential_MLP...

Beginning epoch 1 of training Sequential_MLP...
…
